model/model.pth (torch, 17171 bytes, 4 tensors)

model_layers.0.weight f4 [256, 11]
-0.049426142 0.023864599 -0.3777366 -0.27036494 0.4880439 0.13355178 0.023773316 -0.51441383
-0.05039078 0.3346293 -0.28302777 0.059323285 0.066145614 -0.4250086 0.35627717 0.41453135
0.24994008 -0.3170883 0.0015324042 -0.24828967 -0.002905215 -0.32687986 0.23851156 0.55386746
-0.40808836 0.16871841 0.14150044 0.021527646 -0.28059015 -0.21399577 -0.2322236 -0.36714453
0.106705785 0.17801249 -0.6138467 0.07848584 -0.19009668 0.2767515 0.3468901 0.019461412
0.44999945 0.0076433257 -0.18727198 0.20749082 -0.11597746 -0.50535953 0.66799724 0.02503214
-0.12255332 0.20193192 -0.061562657 0.284114 0.13458669 -0.1406915 -0.15474448 -0.21365263
0.40470597 -0.24715854 0.4471332 0.22531424 -0.22005455 -0.18544377 0.20390639 0.30113003
-0.30945978 -0.28567916 0.35111034 0.076722205 -0.11601219 0.29623514 -0.28593752 0.22676565
0.102383696 0.00017031557 -0.2767984 -0.20695183 0.07223766 0.08393573 -0.14717111 0.41041493
0.15262954 0.16354461 -0.15089275 -0.08332557 -0.029337779 -0.014438349 0.17630623 0.032667067
-0.2614617 0.4273837 0.4129449 0.10149732 0.120597586 -0.44007516 -0.47079593 0.3963513
0.47190347 -0.11564441 -0.16381776 0.34347403 0.16894962 -0.2867197 0.016222062 -0.48927647
-0.0946178 0.3030527 -0.13749291 0.36379272 -0.116132595 -0.38670796 0.31225663 -0.003835413
-0.28447235 0.26469797 0.07776116 -0.26502645 0.38487908 -0.29095057 -0.16822639 0.22170427
-0.3956981 -0.34325227 0.7299906 -0.25654298 -0.1406004 -0.071187906 0.087642856 -0.021474026
0.27578786 -0.07544517 0.103343785 0.11413558 0.4815551 -0.41808006 0.5475483 -0.05134977
0.13683392 0.05473442 -0.23072352 -0.045972493 0.24057811 0.036121193 0.19350608 0.30821666
-0.11134003 0.24449469 0.304971 -0.35212302 -0.3448361 0.22238712 -0.32820028 -0.0011956047
0.25545233 -0.41160846 -0.21502708 0.15628201 -0.044184186 0.1608934 -0.06271656 -0.1831723
-0.03720678 -0.21496885 0.23898064 0.1108166 0.07587809 -0.06757019 -0.2202072 0.384652
-0.07855542 0.17957698 -0.10999757 -0.02796707 0.025922848 0.081638485 -0.22266772 -0.07232652
0.22733401 0.26758727 -0.40974718 -0.11107954 -0.23101224 -0.06178669 -0.29829854 0.26159683
0.004738275 0.04497816 0.19794752 -0.119177945 -0.050737306 0.6200494 0.10609097 -0.022086512
0.22028379 -0.20740117 0.31445906 0.1832434 0.12667528 -0.30191943 0.41188392 0.5953443
0.10072896 -0.16539766 0.25383556 -0.22854415 0.15651195 0.2352797 -0.12858957 0.2596719
-0.3165676 -0.31697264 0.42627332 -0.16951826 -0.13246273 -0.33480623 -0.18613425 0.051916715
0.18384366 -0.23104672 0.36765715 -0.42796928 -0.19439992 0.5695504 -0.54437506 -0.11152078
-0.035033032 -0.12788552 0.3697312 0.29074174 0.4525267 0.4245732 -0.11667106 0.24540904
-0.005768347 -0.26184428 -0.33581674 0.22977574 0.35453537 -0.03650707 0.50821626 -0.17856498
-0.21134442 0.2032237 -0.032816768 -0.07501221 0.089105256 0.28743657 -0.2096846 -0.28246385
-0.12744974 -0.24286146 -0.49340403 0.2585914 0.20769127 0.09540301 0.050479196 -0.042842224
00000000: 1173 4abd b17f c33c b166 c1be 466d 8abe
00000010: e4e0 f93e ccc1 083e 42c0 c23c a0b0 03bf
00000020: 9066 4ebd 8854 ab3e 04e9 90be f9fc 723d
00000030: 5a77 873d ba9a d9be f669 b63e 743d d43e
00000040: 4bf0 7f3e 6659 a2be f4da c83a a63f 7ebe
00000050: 6b65 3ebb cc5c a7be 603c 743e 42ca 0d3f
00000060: f5f0 d0be 85c4 2c3e 7ee5 103e bf5a b03c
00000070: 83a9 8fbe b521 5bbe 06cc 6dbe 5efa bbbe
00000080: 9088 da3d e848 363e 0f25 1dbf 2fbd a03d
00000090: b4a8 42be 5fb2 8d3e 949b b13e 8a6d 9f3c
000000a0: 5466 e63e dd74 fa3b 3ac4 3fbe 7978 543e
000000b0: 9785 edbd 3e5f 01bf de01 2b3f 3410 cd3c
000000c0: 3cfd fabd 3ec7 4e3e 2029 7cbd 6477 913e
000000d0: 18d1 093e 6f11 10be 5675 1ebe c1c7 5abe
000000e0: 9f35 cf3e 2117 7dbe a5ee e43e c7b8 663e
000000f0: fb55 61be f9e4 3dbe d6cc 503e b72d 9a3e
00000100: 8371 9ebe 8a44 92be bcc4 b33e 8820 9d3d
00000110: cd97 edbd 22ac 973e 6766 92be 4135 683e
00000120: 8bae d13d bd96 3239 85b8 8dbe 2eeb 53be
00000130: 57f1 933d 7fe6 ab3d 06b4 16be e821 d23e
00000140: eb4a 1c3e 3d78 273e a183 1abe 99a6 aabd
00000150: c855 f0bc d38e 6cbc 9f89 343e e7cd 053d
00000160: 4fde 85be 09d2 da3e 846d d33e d4dd cf3d
00000170: defb f63d 8851 e1be 2a0c f1be 8fee ca3e
00000180: 559d f13e fad6 ecbd d8bf 27be d4db af3e
00000190: 2101 2d3e edcc 92be 21e4 843c 7282 fabe
000001a0: fac6 c1bd b929 9b3e f1ca 0cbe 0a43 ba3e
000001b0: edd6 edbd 96fe c5be 1ae0 9f3e 8d5b 7bbb
000001c0: 5ca6 91be 7e86 873e 3e41 9f3d 8cb1 87be
000001d0: df0e c53e 79f7 94be 8a43 2cbe 7206 633e
000001e0: f198 cabe c3be afbe aae0 3a3f 9a59 83be
000001f0: 8df9 0fbe f7ca 91bd 197e b33d 4cea afbc
00000200: 1134 8d3e ff82 9abd e8a5 d33d eabf e93d
00000210: 648e f63e 970e d6be 202c 0c3f 2354 52bd
00000220: 311e 0c3e 3331 603d c942 6cbe a74d 3cbd
00000230: 1c5a 763e d1f3 133d 7526 463e 93ce 9d3e
00000240: 3e06 e4bd d15c 7a3e 2925 9c3e 7849 b4be
00000250: 5b8e b0be 73b9 633e de09 a8be d6b5 9cba
00000260: a6ca 823e 58be d2be 0f30 5cbe 6408 203e
00000270: 7afa 34bd 3dc1 243e 8a71 80bd 8591 3bbe
00000280: 2366 18bd cb20 5cbe 57b7 743e d0f3 e23d
00000290: f965 9b3d 3d62 8abd ff7d 61be 1bf1 c43e
000002a0: aae1 a0bd 07e3 373e 6846 e1bd 321b e5bc
000002b0: 275c d43c 1432 a73d 0203 64be ed1f 94bd
000002c0: 3fca 683e 3301 893e 62ca d1be ab7d e3bd
000002d0: 798e 6cbe 0a14 7dbd 96ba 98be 05f0 853e
000002e0: 8843 9b3b 053b 383d c1b2 4a3e 9113 f4bd
000002f0: ecd1 4fbd 8fbb 1e3f 3946 d93d c6ee b4bc
00000300: 1392 613e f960 54be c700 a13e 28a4 3b3e
00000310: 2ab7 013e 2f95 9abe 73e2 d23e 7c68 183f
00000320: fc4a ce3d 015e 29be bcf6 813e 7a07 6abe
00000330: ab44 203e 29ed 703e fcac 03be b7f3 843e
00000340: 2615 a2be 3d4a a2be 7f40 da3e 3296 2dbe
00000350: 4fa4 07be b96b abbe fa99 3ebe 9fa6 543d
00000360: 8341 3c3e 8397 6cbe 8f3d bc3e ca1e dbbe
00000370: c610 47be 0ece 113f 2a5c 0bbf 0265 e4bd
00000380: cc7e 0fbd 6cf4 02be 684d bd3e 1adc 943e
00000390: 94b1 e73e a961 d93e 3df1 eebd 824c 7b3e
000003a0: 6704 bdbb 7410 86be 2cf0 abbe 554a 6b3e
000003b0: a985 b53e 7088 15bd 761a 023f bdd9 36be
000003c0: ac6a 58be e019 503e e06a 06bd 00a0 99bd
000003d0: d17c b63d e32a 933e 8fb7 56be 1a9f 90be
000003e0: 2f82 02be adb0 78be 749f fcbe 1866 843e
000003f0: 05ad 543e a762 c33d 46c3 4e3d 547b 2fbd

model_layers.0.bias f4 [256]
0.16241996 0.34342468 0.017793452 -0.24083227 0.24668774 0.029703842 0.32250845 -0.11693649
-0.0134436535 0.10362523 -0.02741906 -0.0701376 -0.06357406 0.0216729 -0.12991104 0.15489528
-0.006725037 0.1737084 -0.1591339 -0.2803729 -0.25440487 -0.15313265 -0.11603217 -0.07080494
-0.3295791 -0.15008572 -0.022756046 0.063961655 -0.26748356 -0.21359947 -0.012982971 -0.26956478
-0.08126386 0.105314575 -0.22839238 0.033589166 -0.15376334 -0.060238097 -0.2242392 -0.29008958
0.34079847 0.25816047 -0.31374815 -0.09849683 -0.27226764 0.17191495 -0.31577736 -0.29430065
-0.28456253 -0.33686808 -0.08831988 0.119051315 0.29498434 -0.29272607 -0.26182815 0.077757955
0.042855345 -0.05343096 -0.09070686 -0.10426971 0.3515441 0.2035166 -0.028090285 -0.2749801
-0.17703973 -0.06730059 -0.19058003 -0.077473514 -0.21474664 -0.21928367 -0.020113152 0.29874548
0.3798962 0.036958 0.15149547 -0.01663808 -0.19713616 -0.20631728 -0.194298 -0.09153063
-0.101474926 0.43751493 -0.06770172 -0.038466327 -0.07798213 0.27993998 -0.15303259 0.28543425
0.0864184 -0.039726015 -0.25002408 0.21826382 -0.20404303 -0.2253048 0.15263082 -0.07370433
0.29390144 -0.1400917 -0.20615765 0.5156039 -0.30997133 0.16529195 -0.013425358 0.06695343
0.01080064 -0.087343164 -0.3388608 -0.29747826 -0.022393908 -0.06798034 0.25643122 -0.12752712
-0.2653306 0.4079163 -0.102091596 -0.036006145 -0.12580504 -0.08267569 0.1421389 -0.024251373
0.4524067 -0.11501544 0.046456374 -0.12750545 -0.23555036 0.2623682 -0.0478283 -0.34261405
0.38222227 -0.05737246 -0.016181383 -0.014144811 -0.14160733 -0.035171725 0.0600666 -0.35957003
0.12022644 0.0151934475 -0.2089489 -0.19619076 -0.142003 -0.13668644 0.37561798 -0.057196155
-0.10448677 0.24278942 -0.25710702 -0.2439254 -0.21717244 -0.004196816 0.010713736 -0.044382323
-0.12268839 0.0795472 0.078581564 0.36320618 0.17871998 0.07631994 -0.14437939 -0.060151685
0.4443627 -0.22481334 0.09158277 0.38257363 0.39694187 -0.10844765 0.044514693 -0.28873852
-0.026703414 -0.022130948 0.556017 -0.09834673 -0.0058603245 0.31766984 0.2330296 -0.04367214
-0.18044877 -0.15627433 -0.0186289 0.053115137 -0.03592957 0.0099316 0.06983569 -0.19150695
-0.2538889 0.09042162 -0.14017045 -0.15866268 0.011665174 -0.2183918 -0.11717618 -0.28391793
-0.1684735 -0.10703143 0.1604972 -0.1872952 0.016583096 -0.2608478 0.039885588 -0.107852004
-0.18587841 0.034131642 0.091162615 -0.20656757 0.22297846 -0.15080851 0.086535536 -0.22858892
-0.048414953 0.07271032 -0.20042546 0.22150554 -0.04129987 0.11307625 -0.34780207 0.18801644
-0.1527406 -0.11760765 0.23061283 -0.13415928 -0.25687328 -0.17431706 -0.018578999 -0.33595285
-0.15173416 0.04646922 0.09227334 -0.08361674 -0.0594272 -0.10932566 0.2124476 -0.23964417
-0.22983481 0.14297037 0.0147199435 -0.23874974 -0.19802485 -0.08025759 -0.15460774 -0.28827876
-0.26195 -0.05218597 0.13647217 -0.24877582 -0.13364771 -0.10009225 0.09801554 0.07813085
-0.026708774 0.07512097 -0.006628925 -0.09973473 0.29874542 -0.17330696 -0.06967295 -0.099889815
00000000: 6b51 263e 5cd5 af3e 93c3 913c bc9c 76be
00000010: b69b 7c3e 7955 f33c d41f a53e 667c efbd
00000020: c542 5cbc 7739 d43d f09d e0bc 4da4 8fbd
00000030: 1e33 82bd 5e8b b13c 6607 05be de9c 1e3e
00000040: b35d dcbb 9de0 313e fff3 22be 098d 8fbe
00000050: 5b41 82be cece 1cbe 46a2 edbd 2e02 91bd
00000060: 97be a8be 12b0 19be e36a babc 54fe 823d
00000070: 9bf3 88be d2b9 5abe 87b6 54bc 6504 8abe
00000080: ab6d a6bd 2baf d73d b1df 69be cb94 093d
00000090: 2374 1dbe 39bc 76bd f69e 65be 9f86 94be
000000a0: 237d ae3e 9c2d 843e 99a3 a0be b5b8 c9bd
000000b0: aa66 8bbe 790a 303e 92ad a1be 93ae 96be
000000c0: 2eb2 91be f979 acbe 0ee1 b4bd 2dd1 f33d
000000d0: 3008 973e 31e0 95be 570e 86be 903f 9f3d
000000e0: 1689 2f3d 6cda 5abd 85c4 b9bd 5c8b d5bd
000000f0: 97fd b33e a866 503e 991d e6bc 31ca 8cbe
00000100: e749 35be e4d4 89bd 6927 43be 6faa 9ebd
00000110: 8be6 5bbe e68b 60be 56c4 a4bc 2bf5 983e
00000120: c181 c23e 4661 173d a121 1b3e 954c 88bc
00000130: 10de 49be d644 53be 0ef6 46be 6974 bbbd
00000140: 16d2 cfbd f501 e03e 33a7 8abd de8e 1dbd
00000150: 18b5 9fbd 4b54 8f3e 93b4 1cbe 7024 923e
00000160: 21fc b03d bfb7 22bd 2803 80be 8d80 5f3e
00000170: a8f0 50be 4db6 66be 414b 1c3e 4cf2 96bd
00000180: 407a 963e 3374 0fbe fe1a 53be 9efe 033f
00000190: 90b4 9ebe 4b42 293e 08f6 5bbc e11e 893d
000001a0: 2bf5 303c f9e0 b2bd 2a7f adbe 124f 98be
000001b0: 6e73 b7bc 4739 8bbd f44a 833e 7896 02be
000001c0: 6ad9 87be 68da d03e 6615 d1bd 2e7b 13bd
000001d0: 09d3 00be df51 a9bd dc8c 113e d1aa c6bc
000001e0: daa1 e73e 378d ebbd 0a49 3e3d ca90 02be
000001f0: 1d34 71be 2055 863e 9ce7 43bd 1c6b afbe
00000200: a3b2 c33e 62ff 6abd d28e 84bc a3bf 67bc
00000210: 8301 11be 3a10 10bd 6508 763d 9019 b8be
00000220: 4839 f63d f0ed 783c b3f6 55be 3be6 48be
00000230: 3c69 11be 88f7 0bbe 0051 c03e 8446 6abd
00000240: 29fd d5bd ca9d 783e 88a3 83be 94c7 79be
00000250: 7462 5ebe 7285 89bb aa88 2f3c 3dca 35bd
00000260: 0d44 fbbd a4e9 a23d 5fef a03d 29f6 b93e
00000270: 5f02 373e a14d 9c3d 31d8 13be 9d61 76bd
00000280: 8283 e33e 7835 66be bf8f bb3d b1e0 c33e
00000290: f73b cb3e cd19 debd 0a55 363d 89d5 93be
000002a0: 1ec1 dabc f64b b5bc 2157 0e3f 036a c9bd
000002b0: f707 c0bb 9fa5 a23e 509f 6e3e 8fe1 32bd
000002c0: 90c7 38be 6106 20be a39b 98bc 428f 593d
000002d0: e32a 13bd 26b8 223c 0406 8f3d 661a 44be
000002e0: bafd 81be f82e b93d d888 0fbe 7878 22be
000002f0: 491f 3f3c 1aa2 5fbe 11fa efbd b15d 91be
00000300: 5184 2cbe 4b33 dbbd 6159 243e 50ca 3fbe
00000310: 46d9 873c d88d 85be 125f 233d 83e1 dcbd
00000320: e956 3ebe 9fcd 0b3d 77b3 ba3d 7386 53be
00000330: 7754 643e 8c6d 1abe 8b39 b13d 3713 6abe
00000340: c24e 46bd 26e9 943d 553c 4dbe 59d2 623e
00000350: 0d2a 29bd 8594 e73d 1d13 b2be 6287 403e
00000360: 0868 1cbe 48dc f0bd c525 6c3e 0d61 09be
00000370: e584 83be 2c80 32be fc32 98bc 0302 acbe
00000380: 3360 1bbe 8256 3e3d cef9 bc3d 413f abbd
00000390: f069 73bd 22e6 dfbd dd8b 593e 4865 75be
000003a0: d159 6bbe d366 123e eb2b 713c d07a 74be
000003b0: 07c7 4abe 175e a4bd 7e51 1ebe 4699 93be
000003c0: 4f1e 86be f5c0 55bd 5cbf 0b3e 17bf 7ebe
000003d0: f2da 08be 2afd ccbd 5fbc c83d 1103 a03d
000003e0: 5ccc dabc 06d9 993d 7437 d9bb b941 ccbd
000003f0: 29f5 983e 6177 31be b1b0 8ebd 0893 ccbd

model_layers.1.weight f4 [3, 256]
0.25888002 0.2910898 -0.012001289 -0.39022928 0.042448264 0.43443018 0.15295924 0.020517793
0.3598198 -0.531629 -0.41236383 -0.034044847 -0.036759164 -0.28984976 -0.03524663 0.07215014
-0.050243445 0.098451406 -0.2933791 -0.21117382 -0.36212733 -0.37672943 -0.29035097 0.42754054
0.04361982 -0.13381769 -0.13925372 -0.00862635 -0.1799373 -0.03497471 -0.0756919 -0.042178992
0.005660856 0.024751486 -0.48058537 -0.051996164 -0.16530776 -0.203537 0.02338513 -0.21283035
0.32323173 0.44732863 -0.27776116 -0.03731675 -0.039795045 0.03868209 -0.0059891483 -0.02390141
-0.3328562 0.024707608 -0.27230176 0.30549744 0.13083494 -0.3238648 0.01266217 0.25299206
-0.39620763 0.16814223 -0.14753883 0.2123521 0.20156787 0.6430665 -0.00020329861 -0.23211785
-0.29813862 0.29990378 -0.33763278 -0.29003248 -0.009128158 -0.51221603 -0.013565549 0.3785189
0.28291818 0.22002374 0.29863986 0.095286734 -0.05412113 -0.2535659 -0.16752583 0.38059074
0.2533906 0.388013 0.22168991 -0.13428642 -0.28403166 0.20072941 0.021435741 0.3551246
-0.09695402 -0.26482683 -0.097077444 0.029220317 -0.10502508 0.14648077 0.08525438 -0.12538034
0.10159839 0.21045324 -0.34363908 0.26551867 -0.03424743 0.024308959 0.3520663 -0.12465368
-0.026105661 -0.11474829 -0.18174733 0.024484515 -0.022918312 0.21909396 0.18876135 -0.18483587
0.019516185 0.27287635 -0.11571128 -0.22674987 0.09778138 -0.50543636 0.033973146 0.14797182
0.5351012 -0.0049745594 0.13159299 -0.5669752 -0.19712366 0.24831083 -0.031719506 -0.36475316
0.28119722 -0.5845305 -0.4343356 0.12542288 -0.028147079 -0.22534917 -0.21432969 -0.20904462
0.22567509 0.022509545 0.0050163134 -0.2400509 -0.0822611 -0.16393924 0.14137754 -0.051314283
-0.17825726 0.18941492 -0.18880737 -0.029271556 -0.026616259 0.26167947 0.39537948 0.34120277
0.046762276 -0.13135536 -0.03224701 0.18324801 -0.07824683 0.4489945 -0.08336735 0.134107
0.3198791 0.028549122 -0.4866993 0.25227374 0.26727444 0.34498578 -0.11567899 0.0051631927
0.041060988 0.11729174 0.3944216 -0.2618208 0.29098812 0.068952866 0.43068305 -0.1895609
-0.211108 -0.3342232 -0.1098601 0.37544522 -0.1314839 -0.2846918 0.118456356 -0.12966648
1.7075417e-05 0.2787481 -0.027626917 -0.5496922 -0.2349836 -0.29023623 0.3113662 -0.36781475
-0.08613459 -0.19051608 0.06192956 -0.08637372 -0.585938 -0.07687706 -0.057157755 -0.2749458
-0.06186824 -0.040898513 0.39111778 -0.48818818 0.33251575 -0.05670413 -0.085217744 0.27816078
-0.07959662 -0.18996905 -0.198089 0.13436411 -0.07251522 0.073730476 -0.016246371 0.100944355
-0.0769141 0.09150672 0.3005875 0.30539826 -0.25869703 -0.19212696 -0.2538515 -0.017696792
-0.016324472 -0.04334495 -0.41190037 0.26433155 -0.13545619 -0.5132851 0.13212322 -0.16572201
-0.6243745 0.052854143 0.06325316 0.016779438 -0.37005007 -0.2634174 -0.2762585 -0.18183053
-0.042501736 0.20243321 0.27660048 -0.4563475 -0.20403512 -0.08375405 0.19509661 -0.65579796
-0.40385118 -0.39393273 0.111538365 -0.07403888 0.12626775 -0.14779319 -0.26236627 -0.21400136
00000000: ec8b 843e b909 953e 0ea1 44bc 22cc c7be
00000010: 3bde 2d3d a26d de3e 59a1 1c3e ee14 a83c
00000020: 4d3a b83e d718 08bf 5a21 d3be 9c72 0bbd
00000030: c790 16bd 3067 94be c55e 10bd 74c3 933d
00000040: 12cc 4dbd e4a0 c93d c935 96be f33d 58be
00000050: c168 b9be aee2 c0be e2a8 94be 98e6 da3e
00000060: b2aa 323d 8107 09be 8798 0ebe 8955 0dbc
00000070: 7c41 38be a441 0fbd 5b04 9bbd e1c3 2cbd
00000080: b47e b93b a1c3 ca3c 490f f6be eef9 54bd
00000090: 7046 29be 016c 50be 2c92 bf3c 33f0 59be
000000a0: a17e a53e 4208 e53e b636 8ebe 73d9 18bd
000000b0: 2100 23bd 1c71 1e3d 9e40 c4bb e4cc c3bc
000000c0: 216c aabe 9c67 ca3c 236b 8bbe 296a 9c3e
000000d0: 98f9 053e 9bd1 a5be fe74 4f3c 2d88 813e
000000e0: badb cabe 7a2d 2c3e 6b14 17be d472 593e
000000f0: cf67 4e3e 02a0 243f 8e2c 55b9 4db0 6dbe
00000100: a0a5 98be fd8c 993e 34de acbe 237f 94be
00000110: 458e 15bc 9720 03bf 0942 5ebc 3bcd c13e
00000120: a7da 903e e74d 613e 53e7 983e b125 c33d
00000130: 1eae 5dbd 64d3 81be e48b 2bbe cadc c23e
00000140: 6abc 813e a4a9 c63e ae02 633e 6182 09be
00000150: 996c 91be 038c 4d3e 029a af3c e4d2 b53e
00000160: d48f c6bd 6297 87be 8ad0 c6bd 725f ef3c
00000170: 6417 d7bd 0eff 153e d999 ae3d b463 00be
00000180: d112 d03d 0e81 573e 76f1 afbe 10f2 873e
00000190: 0847 0cbd 9523 c73c 0942 b43e 6e4a ffbd
000001a0: 8adb d5bc 2701 ebbd f91b 3abe c093 c83c
000001b0: 2fbf bbbc 2b5a 603e a84a 413e 9d45 3dbe
000001c0: 68e0 9f3c 73b6 8b3e 09fa ecbd 1e31 68be
000001d0: 9b41 c83d 4764 01bf 6d27 0b3d ed85 173e
000001e0: 64fc 083f a101 a3bb 50c0 063e 4925 11bf
000001f0: c9da 49be 3245 7e3e 50ec 01bd edc0 babe
00000200: 15f9 8f3e caa3 15bf 3c61 debe db6e 003e
00000210: b494 e6bc efc1 66be 3e79 5bbe cb0f 56be
00000220: 5f17 673e f065 b83c e35f a43b e7cf 75be
00000230: 8278 a8bd b0df 27be 46c5 103e ed2e 52bd
00000240: 1289 36be fcf5 413e b856 41be e7ca efbc
00000250: 570a dabc dafa 853e 2e6f ca3e 21b2 ae3e
00000260: cd89 3f3d 0582 06be 7115 04bd 5ea5 3b3e
00000270: e03f a0bd 9be2 e53e 80bc aabd 5853 093e
00000280: 32c7 a33e d9df e93c a730 f9be 062a 813e
00000290: 32d8 883e faa1 b03e 1be9 ecbd 0030 a93b
000002a0: 912f 283d a736 f03d a1f1 c93e 600d 86be
000002b0: 65fc 943e 2937 8d3d 7d82 dc3e 411c 42be
000002c0: b22c 58be 4e1f abbe 55fe e0bd 5b3a c03e
000002d0: b7a3 06be 20c3 91be 3f99 f23d 4ac7 04be
000002e0: 2e3d 8f37 12b8 8e3e d851 e2bc a1b8 0cbf
000002f0: 8a9f 70be d899 94be 646b 9f3e 3752 bcbe
00000300: 5567 b0bd a616 43be daa9 7d3d b4e4 b0bd
00000310: 0800 16bf b871 9dbd 401e 6abd b2c5 8cbe
00000320: 8d69 7dbd 3385 27bd 9740 c83e cdf3 f9be
00000330: 813f aa3e 9742 68bd a486 aebd 176b 8e3e
00000340: 8d03 a3bd 3f87 42be d8d7 4abe bf96 093e
00000350: dc82 94bd 0100 973d 1c17 85bc eabb ce3d
00000360: 2485 9dbd e067 bb3d 9be6 993e 295d 9c3e
00000370: f073 84be eebc 44be d3f8 81be ddf8 90bc
00000380: e6ba 85bc 798a 31bd 9be4 d2be 7756 873e
00000390: 07b5 0abe a766 03bf 4f4b 073e 08b3 29be
000003a0: 02d7 1fbf 967d 583d df8a 813d 0875 893c
000003b0: 3477 bdbe a5de 86be c171 8dbe c831 3abe
000003c0: 4d16 2ebd a74a 4f3e 949e 8d3e 61a6 e9be
000003d0: 95ee 50be 3e87 abbd 68c7 473e 60e2 27bf
000003e0: 95c5 cebe 8db1 c9be 3a6e e43d b2a1 97bd
000003f0: 554c 013e 1957 17be df54 86be 2c23 5bbe

model_layers.1.bias f4 [3]
0.20335689 -0.0068342094 -0.007019144
00000000: ca3c 503e 81f1 dfbb d900 e6bb
