model/model.pth (torch, 17171 bytes, 4 tensors)

model_layers.0.weight f4 [256, 11]
00000000: 33d5 8a3e 360b 3dbe e869 953d d4b6 393d
00000010: d2f4 003e 549d ec3d 2dc4 f33d f7ad 8d3d
00000020: e1ea bd3d c90b 48be 06b0 9c3e 67ce 5f3e
00000030: 38f9 1d3e 4e05 81be 1d40 c7bd 2576 b63d
00000040: 720b 3fbc 4253 ab3d e5a1 c03d 29a8 253e
00000050: 3726 2d3d 11db aa3d a439 11ba 0b6a 2a3e
00000060: 1f24 03bd 285d 57be 0b11 7f3e 3791 89be
00000070: 42df 413d 062d 513e ad5b 083e 648a 8f3e
00000080: 8b78 8b3e 984d bf3c b462 f9bd 9c89 08be
00000090: f43a c93d 8a7d 9abe 4c69 873d ca0e 32be
000000a0: 9499 80bc af71 263e 8b66 a5bd aa74 30be
000000b0: 3d0e dd3d 3c27 9cbc 74ff 043e dea3 1a3e
000000c0: 57ce 97bd ecbe 153e 6b44 2dbe 5582 51be
000000d0: 4ae1 8bbd 179b 63be 170d b73c bebf 143e
000000e0: 5354 12be da26 49be 51bd 323e 0dc9 7f3d
000000f0: dc6e 09be 0554 833e dde7 163d 86ca fb3d
00000100: 9245 c8bd 3266 70be 8021 2ebe 6267 85be
00000110: e0bd 2abe fd29 703c 29db 06be 7332 e2bd
00000120: e6da 413e 398c dfbd 72fc 40bc a41f dabd
00000130: 11b4 26bd 8711 1fbe 2f9c 493e 3b38 d13d
00000140: 7ed1 11be 9497 8cbe dd13 123e 85b7 203e
00000150: ce9a 2f3e 0f78 8abe 91f2 7e3e 2c95 8cbe
00000160: 4994 8b3e e4d5 b7bb 117f 1c3e 3100 14bd
00000170: 847e 563e 43f2 113e 0dcf d63b fe21 5d3e
00000180: 91c4 dcbd 528e 613e ac4b e73c c3bf 6ebe
00000190: 8f98 32be bf93 7fbe e920 6dbe 6e47 0b3e
000001a0: 92d6 2f3e 0c2e 8cbd 939e a7bb 9cb3 09be
000001b0: 3809 e13d ab92 363e 056a 623e 4ccd 5d3e
000001c0: 602a 003e 9b4b a8bd 3f12 efbd 0f1e fe3d
000001d0: f9f9 a3bb a4ec 7e3d e10d 643d be8f 45bc
000001e0: 841c 70bd 7a16 203e dc6f 303e e9d4 96be
000001f0: 3f60 24be d155 843b 8a9a 62be a044 ebbd
00000200: 5d66 6ebe 79cc 083e ac78 74be f044 d4bd
00000210: f7fe 78be 6f95 843b 3818 2f3e 93cb 5fbe
00000220: 83c1 edbd 864a b7bc 68be 493d e943 bcbd
00000230: 7291 b4bd 3d87 a73d e64c d9bd 7845 6abd
00000240: 2551 98be 95b8 e43d 054a 493e 23b3 273e
00000250: 0def 5abe 3aaf 19be cdb8 3dbd bbce 6abe
00000260: 0740 92bc e6dc ccbd 75dc 663e 18ef 2a3e
00000270: 0d78 7dbe e989 20be 954e b7bc b2d8 48be
00000280: 3e61 0fbe 12f3 803e 11cc cfbd 5aa5 09be
00000290: f2b1 203e cd5b 72ba 7ec2 493d f3ea 67be
000002a0: 70d5 8cbd d2c6 553e 2edf 68be f21f 9abe
000002b0: 8798 60be 9e6f 03bc c659 8ebe b57c 95bd
000002c0: eb48 15bd 027d 663e 617e 733d 1263 00be
000002d0: 44e4 823e 1e33 53be a860 2cbe fd78 e63d
000002e0: 8004 75be 21ef 21be 1820 8abe 157b 463e
000002f0: db7e 783e fc77 993d 944a 933e 329c fdbd
00000300: 3454 59be d639 70be 12e8 81be 23f3 093e
00000310: c83d ed3a 0a51 13bd 9283 643d e2c1 b13d
00000320: 0acf debc 641a 023e 3175 0f3e 080f 4c3e
00000330: 6372 c6bc 690e 72bd b030 fabc e4c4 ce3d
00000340: b919 353e 5ec5 85be be03 973e bbc2 44be
00000350: 9825 113e c4a1 adbd d7a5 94bd e12b 72be
00000360: f1e4 8e3e 0b40 a5bd df4e 25be f232 343d
00000370: 4e37 89be 34aa d93b d7f5 8dbe afb1 a43d
00000380: 7bd2 20be cf49 6bbd 300c 803e f612 a03d
00000390: 7a78 6d3e e3ad 143d d68c 6ebe 2f7d 27be
000003a0: a551 37be 663e 65be c4ec 823e 0b20 a4bc
000003b0: 485a 69bd 7fa7 7cbe b0f5 7f3e d589 393e
000003c0: cef9 84be 3893 f03d b4ff 70be 7f15 663d
000003d0: c157 93be 14da 533e 8d41 65be b780 813d
000003e0: 3744 adbd bf7a 773e e7df 75be 0c79 60be
000003f0: 90cb 96be 178a 85bd 5e42 12be 705b c33c
0.27115783 -0.18461308 0.07295591 0.045340374 0.12593392 0.115534455 0.11902652 0.06917947
0.09273315 -0.19535746 0.30603045 0.2185608 0.154271 -0.2519936 -0.097290255 0.08909253
-0.011660444 0.083654895 0.09405879 0.1617743 0.042272773 0.08342565 -0.00055399 0.16642015
-0.03201687 -0.2103163 0.24908845 -0.26868603 0.047332056 0.20427331 0.13316222 0.2803527
0.27240404 0.02335243 -0.12177029 -0.13333744 0.098256975 -0.30173904 0.06611881 -0.17388454
-0.015698232 0.16254304 -0.08076199 -0.17232004 0.10793731 -0.019061677 0.12988073 0.15101573
-0.07412403 0.14623612 -0.1692063 -0.20459874 -0.0683008 -0.22227131 0.022345109 0.14526269
-0.1428998 -0.19643727 0.17455031 0.062447596 -0.13421196 0.2565004 0.036842216 0.12294488
-0.097788945 -0.23476484 -0.17004967 -0.26055437 -0.16673994 0.014658448 -0.1316954 -0.11044779
0.1893116 -0.10915417 -0.011778938 -0.10650566 -0.04069907 -0.1553403 0.19688486 0.10215803
-0.14240071 -0.27459395 0.1426539 0.15695007 0.17148897 -0.27044722 0.24897219 -0.2745756
0.2726157 -0.0056102145 0.15282847 -0.036132995 0.209467 0.14252572 0.006555444 0.21594998
-0.107796796 0.22026947 0.028234325 -0.23315339 -0.17441009 -0.24958704 -0.23157085 0.13601467
0.17171696 -0.0684472 -0.005115339 -0.13447422 0.109880865 0.17829387 0.22110756 0.21660346
0.12516165 -0.082175456 -0.11673402 0.12408077 -0.0050041643 0.062237397 0.0556773 -0.012058197
-0.058620945 0.15633574 0.17230171 -0.29459313 -0.1605234 0.0040385504 -0.22129264 -0.114876986
-0.23281236 0.1335925 -0.23874158 -0.10364711 -0.24316011 0.004046134 0.17099082 -0.21855001
-0.11609175 -0.022374403 0.04925385 -0.0919264 -0.08816804 0.081800915 -0.1061037 -0.057195157
-0.29749408 0.11168019 0.19657142 0.16376929 -0.21380253 -0.1500825 -0.046318818 -0.22930424
-0.017852796 -0.100030705 0.22545035 0.1669277 -0.24752827 -0.15677609 -0.022376338 -0.19613913
-0.14001939 0.25185448 -0.101463445 -0.13441983 0.15692881 -0.0009245247 0.049257748 -0.2264822
-0.068766475 0.20876625 -0.22741386 -0.30102497 -0.21933185 -0.008022217 -0.27802867 -0.072991766
-0.036446493 0.22508624 0.059446696 -0.12537792 0.25564778 -0.20624968 -0.16833746 0.112535454
-0.23927498 -0.15813877 -0.2697761 0.1938289 0.24267142 0.07493588 0.28767836 -0.123833075
-0.21223527 -0.23459563 -0.25372368 0.13471656 0.0018100077 -0.035965957 0.055789538 0.08679558
-0.027198333 0.1270538 0.14009549 0.19927609 -0.024224466 -0.059095774 -0.030540794 0.10096148
0.17685594 -0.26127142 0.29495043 -0.19214909 0.14174497 -0.0847812 -0.07258194 -0.23649551
0.27909043 -0.08068856 -0.16143368 0.043993898 -0.26800007 0.0066426042 -0.27726623 0.08041703
-0.15705292 -0.057443436 0.25009298 0.078161165 0.2319049 0.036298644 -0.23295912 -0.16356348
-0.17902239 -0.22387084 0.25571263 -0.02003481 -0.056970865 -0.2467327 0.24996066 0.18118985
-0.25971836 0.1174683 -0.23535043 0.056172844 -0.28777888 0.20688659 -0.22388287 0.063233785
-0.084602766 0.24167918 -0.24011193 -0.21921176 -0.2945218 -0.06520479 -0.1428313 0.023847312

model_layers.0.bias f4 [256]
00000000: 05dc 7dbd 8a6d 473d 62ec 803d 8016 833e
00000010: 0ba1 743e 92dc c9bd f59c 783e 31d4 1ebe
00000020: 0b24 8b3e 9ea3 473e 2eef 273e a457 20bd
00000030: 90ae 7cbd f38f 003e aeca 483e 4b51 343d
00000040: 8b05 933d 2e9a 8bbe 6b6f ab3d f686 d9bd
00000050: aa73 723e e07d 073e ec2b 503c f15f 69be
00000060: 27ab 45be 1caf 253e 2fe8 933d 2b3f d03d
00000070: 1ef3 fbbd b95c e9bd 7722 103e 3718 77bd
00000080: d898 a33d 0d24 573e 0293 7ebe b7be a63d
00000090: 6985 65be 5d0b a13d 20ec 1dbd 49c0 383e
000000a0: 2ea7 8f3e 9f7d 213d f66e 03be 7ddb 55be
000000b0: 0dee 233e 6cba 8ebe 89ff 87be 2ac1 febc
000000c0: a23f f8bd c1fa 00bb d56d 0abe c2cc 03be
000000d0: a49e 3f3e 6cd2 a63d 79ee 4f3d 6f12 9cbd
000000e0: cdae 00bd e722 0fbe bd27 39be dda2 05be
000000f0: 5669 04bc bffe 74be c4ce eebd 64f7 793d
00000100: a036 35be 97f4 1abe d681 96be 30f4 84be
00000110: 0414 83be ffad 8d3e 85b1 aebc f315 273e
00000120: 9111 0e3e aece 1cbe 9202 3f3d 11e6 51be
00000130: 0b86 4a3d c232 ff3d 4634 9dbe 5f89 913b
00000140: 77e3 71be 5c6e 6cbe 2dfe 283d ce88 89be
00000150: ed01 8bbd f901 75bd 1e54 a23d 9d82 e5bc
00000160: c68e 533d 1061 933e 39ff 5dbc ab77 4b3e
00000170: 24ad 543e 5cb9 2f3e 16f1 1f3c 642c a0bd
00000180: 5a53 433e 70b6 043e dffd 7e3e 3ec4 80be
00000190: 69f6 e03d 6db0 1abe c730 093e d483 88be
000001a0: fc80 83be fa04 693e 570b 503d 3bb0 46be
000001b0: ce14 553e 84ae 34be 472c 90be 533c 223e
000001c0: 22bb 523e 4d0a f8bd 6fcd b5bd 5905 3d3e
000001d0: 5d18 7cbe 530f f73d 7d5c 0fbe 7f2f 693e
000001e0: 7e0a 7e3e 5fe0 893e 0491 efbb 3cc2 4d3e
000001f0: 44aa 81be 2d31 fdbd 5069 9fbe 9ded 8abe
00000200: c8f6 a23d 8b60 83be a082 8d3e ab29 f33d
00000210: ee81 823e b26e 4c3d 3c35 4e3e 11d1 0a3e
00000220: 25ca 47be 253f fd3d 4895 6c3d 91dc f53d
00000230: 52b3 4cbe e4b5 fe3b ad96 febd 3ab0 6a3e
00000240: c654 163e 7c1f 3a3c 570d 65be d31f 1ebe
00000250: bde6 0d3e 74b3 283c c311 5ebe 8eb8 5cbe
00000260: fb86 81be 93d0 843d aa52 81be db93 16be
00000270: f8bc 993e 1da6 9e3c 4814 2d3e 4bb4 74be
00000280: 5c6e 3a3e 954a 753e 4888 76be 92ca 283d
00000290: 4c26 163d e2cf 5c3d 56cf edbd e680 8dbe
000002a0: 7e56 373e 8d0b 00be 96b3 0cbd fd6b 03be
000002b0: c1aa f2bd 603b 2fbe c566 14bc f8ec 5c3e
000002c0: c2b1 82be 2779 403d 1286 7c3e d7bd 03be
000002d0: d19c 4bbe 3f1f e03d dddf 933d a6ad 1bbe
000002e0: b652 33be d14a 5d3c 02ca a7bd 79a9 a6bc
000002f0: e6f7 1f3e cd98 4fbd 0517 b3bb 4575 6b3e
00000300: ad0c 56be a58c 79bd 28f9 2c3e f44a b83d
00000310: 0d0e 453e 37db 7bbe 6aa7 963e c6c2 5abd
00000320: 6957 273d d089 d0bd a662 97be 15e3 12bd
00000330: e1b1 58bd 5e11 7cbe 81ef 3fbd 439a 43be
00000340: 6ded 1cbe 39d4 5dbd 682d b73c 6236 363e
00000350: 297e 5e3e e825 e93d fbb1 fd3d af59 1f3e
00000360: 1caa f33c e0b8 b7bd b6b1 ddbd 6133 213e
00000370: d626 473d d854 9a3e 0e7e ffbc cb07 69be
00000380: fb3a 153d 63aa 013c 0d12 0d3e 1b9a 903c
00000390: 77d5 52bc c045 df3c c0db dc3d 8f75 6d3e
000003a0: bb16 c63d 33f3 1fbe ce49 e93d 6e3c 683e
000003b0: 362f ddbd 6140 283e 849d 6d3e df19 7c3e
000003c0: 09b9 61be 831b 5dbe b1ba de3d 8f22 133e
000003d0: 191a 47be 7820 3b3e c6bc 5abe 64f7 83be
000003e0: c45d f73c a0f8 903e 9b89 2cbe 4bcf 093e
000003f0: 8b68 82be 15e0 c8bc c8e8 83be c77b 853e
-0.061977405 0.04868845 0.062950864 0.25603104 0.23889558 -0.098565236 0.24278624 -0.15510632
0.27175936 0.19496009 0.16399834 -0.03914608 -0.061689913 0.12554912 0.19608566 0.04402284
0.071787916 -0.27266067 0.08370861 -0.10621445 0.23676935 0.13231611 0.012705784 -0.22790505
-0.1930357 0.1618008 0.0722202 0.10168298 -0.1230223 -0.113946386 0.14075647 -0.060325827
0.07988137 0.21009846 -0.24860767 0.08141845 -0.22414173 0.078634955 -0.038555264 0.18042101
0.28057235 0.039426442 -0.12835297 -0.2088451 0.16008778 -0.27876604 -0.26562145 -0.031097967
-0.12121512 -0.001968071 -0.1351846 -0.12871078 0.1871286 0.081456035 0.050764535 -0.076207034
-0.031416703 -0.13978158 -0.18081565 -0.13050409 -0.008081755 -0.23925303 -0.11660531 0.061026946
-0.17696619 -0.15132366 -0.29395932 -0.2596755 -0.25601208 0.2767181 -0.021324882 0.16316967
0.13873889 -0.15313217 0.04663331 -0.2049792 0.04944424 0.12460853 -0.30703944 0.0044414247
-0.23621927 -0.23088974 0.041258026 -0.26862186 -0.06787477 -0.059816334 0.079262 -0.028016383
0.05164983 0.2878499 -0.013549619 0.19869868 0.20769173 0.17160553 0.009762069 -0.07820967
0.19074765 0.1296022 0.24901532 -0.2514972 0.10984499 -0.15106364 0.13397513 -0.26663077
-0.25684345 0.22755805 0.050792065 -0.19403164 0.20808718 -0.17644697 -0.2815878 0.15843324
0.20579198 -0.1211134 -0.08877074 0.18459071 -0.24618669 0.1206347 -0.14000125 0.22772025
0.2480869 0.26928994 -0.0073109884 0.20093626 -0.25325215 -0.12362895 -0.31135035 -0.2713441
0.07957226 -0.25659594 0.2763872 0.11873182 0.25489753 0.049910255 0.20137495 0.13556315
-0.19510706 0.123655595 0.057759553 0.1200496 -0.1999028 0.007773148 -0.12431083 0.22918788
0.14680776 0.0113600455 -0.2236837 -0.15441827 0.13857551 0.010296691 -0.21686463 -0.21554777
-0.25298294 0.06485095 -0.2525838 -0.1470484 0.30026984 0.019366318 0.16902268 -0.23896901
0.18206161 0.23954232 -0.24075425 0.04120881 0.036657616 0.05390919 -0.11611812 -0.27637404
0.17904088 -0.12504406 -0.034350954 -0.12834163 -0.11848975 -0.17112494 -0.009057705 0.21574771
-0.25526243 0.04699054 0.24660519 -0.12865387 -0.1988404 0.1094346 0.07220433 -0.1520296
-0.1751202 0.013506607 -0.08192827 -0.020344483 0.1562191 -0.05068283 -0.0054653906 0.22993954
-0.20903273 -0.060925145 0.1689192 0.08998671 0.19243641 -0.24595343 0.29424602 -0.053408407
0.040854845 -0.10182536 -0.2956745 -0.035861094 -0.052904014 -0.24616 -0.046859268 -0.19101815
-0.15324946 -0.05415747 0.022360519 0.17794183 0.21727814 0.11384183 0.12387463 0.15561555
0.0297442 -0.08970809 -0.10824911 0.15742256 0.04862102 0.30142856 -0.031188037 -0.22756879
0.0364332 0.0079141585 0.13776417 0.017651608 -0.012868277 0.02725494 0.107841015 0.23189376
0.09672304 -0.15620117 0.1139103 0.22679302 -0.108000204 0.16430809 0.23204619 0.24619244
-0.22043242 -0.21592526 0.10875452 0.14368652 -0.19443549 0.18274105 -0.21361074 -0.25774682
0.030196078 0.28314686 -0.16849367 0.13457982 -0.25470385 -0.024520913 -0.25763535 0.26070997

model_layers.1.weight f4 [3, 256]
00000000: 8cd9 7bbd 5a43 44bd 350a 333d e4ad ab3c
00000010: 0b5a 1dbd e705 c13c 77a5 d7bc a844 e93c
00000020: 9e4e 8c3c 4159 87bd f0c1 1f3d ef3e bcbc
00000030: 16a1 b03b 0ba1 5bbd b76f 1c3d ee33 c43d
00000040: 6a4f 06bd faf2 13bd 38d1 f53b 5965 393d
00000050: ab3c 2bbd d488 943c 2e0d f5ba 08b1 13bd
00000060: 4caa d0bc bf9f c3bc eb1c 69bd 16a1 64bd
00000070: f21e d13c de9b 393d 0a4c 04bd b166 f5bc
00000080: 5040 1d3d 38c9 1bbd 8053 24bd 60a4 66bc
00000090: e62b 053c 89fa 8f3c 51df 8abc f6bf 4dbd
000000a0: 2d26 ff3c bf83 1ebd 284f 86bc 43ef b2bc
000000b0: d460 5fbd a813 e23b b9f5 81bd 5474 03bd
000000c0: baa8 acbb a2e2 e53b 70be d8bc 75b4 a33d
000000d0: 52cc 91bd f3eb 61bc b3c7 903d e761 ebbc
000000e0: 78c7 3d3c 82cd 5dbd b4b4 633d fd79 4b3c
000000f0: d626 36bc c517 fc3c a082 903b d901 e6bc
00000100: 934e 47bd 8e0b 083c 2b66 b3bb 4477 4fbd
00000110: d64d 78bd 93cd 0bbd 7f6c 40bd 7cf0 acbc
00000120: 92bd f4ba 2808 db3a e630 8abb 845d 92bc
00000130: bf7d 5dba bba9 6e3c d432 553c 4b3c 823c
00000140: 5b01 5f3d 8058 6b3a 84df 493d 4c6a 463d
00000150: 2d14 4a3c 643d 07bd 18af b03c 3ac2 e03c
00000160: 192d 813d 48c8 a0bc 5f21 f13c d069 813b
00000170: 6880 833c 0d46 0c3d 1be1 833c 32cd b0bc
00000180: c794 f9bc b25c 21bd 208e 1d3d 16e0 86bd
00000190: 0b08 6abc 6184 143c 853b d8bc af6d 41bc
000001a0: ce63 5bbd bb24 77bd 13b7 22bd bd01 bfbc
000001b0: 91e6 61bd 80cd a9bc f82c a3bc 246a 563d
000001c0: efc9 17bd 343b 453d ed73 9a3d 7411 233d
000001d0: 4035 15bc 6c6a 83bb 6d36 1dbd c2c0 3c3d
000001e0: b4f4 67bc 5973 1fbd ae96 393d 4042 43bd
000001f0: 41b2 993c 22b6 a23c f269 163c fa1b 1fbd
00000200: 295a 1ebd 06b8 75bc f053 083b 6f3b 92bd
00000210: 2cb0 713d 3d76 953c a7b9 a73c 7f39 3fbd
00000220: 7086 543d 0e32 b83c 7192 273c 8b3c 463d
00000230: 5e7a 2bbd eb48 8e3c 96a2 2fbd 0e10 48bd
00000240: 495a a33c 69f1 b0bc 2c9d 1abd baa0 87bd
00000250: 30f5 79bc a5bf d83c 76d8 59bc fb94 bf3c
00000260: 50f7 69bc 7186 38bd ab26 e23c ae3d 2f3c
00000270: d8d5 8fbc bd98 8b3d 95dd 7ebc 7a49 533d
00000280: 1378 053d 3fca 41bd d023 64bc f193 eebb
00000290: 243e 2d3d 4610 90ba 8e39 cebc da2f 6dbd
000002a0: f7d9 31bd 9da2 3e3d 925d 843c 381e 2dbb
000002b0: 9f0f 693b e0e1 b4bc baee 5e3d 2e3d 07bd
000002c0: d966 8a3d 040f dfbb f8f3 bfbc 8896 ed3c
000002d0: fa33 ea3c 2691 6a3d a68c 8ebb d8a2 3fbd
000002e0: 1c84 643c 04ba b3bc a67a 883d 6dfa 033d
000002f0: ee0b 5b3d 005c 91bd 7d53 6a3c eed3 2b3d
00000300: ad6b 4cbd 3550 93bd e494 603c 3a42 553d
00000310: c927 35bd 40cc 94bc 5f3d d1bc d9cf 803d
00000320: e241 413c 3e5b 88bd 852e bc3c 57de db3d
00000330: 15f6 5e3d 4b98 4c3d 9e8b 64bd dc81 0c3d
00000340: e8fb f43c dbc0 a83c e8a5 7c3a f62d 1e3c
00000350: 4d9f c03c 4768 53bd 7f45 273d 30ab 863d
00000360: bb3d 37bc 669c 0f3d f058 5c3c bdd1 863c
00000370: e74f a83c 7314 e0bc 735f ba3c 1887 3bbd
00000380: 3024 84bd 237c 613d 9b66 e93d 7af1 bb3c
00000390: 72fb 62bd ab8d 9f3d 8544 9f3c c5a1 7ebd
000003a0: 20ac 0c3d 2c3a 4bbd 0afd 303c 06cc 79bc
000003b0: e390 f53a ec93 f93c 4220 d4bc 945e 3dbd
000003c0: a3c6 1c3d d5ec 5e3d 3282 433c 52db 98bb
000003d0: c98c 09bd b8a3 93bc 9a1c a73b f91f 27bd
000003e0: a234 debc 0357 96bc c031 533d 4d71 dabc
000003f0: 147c 553d c9f1 8c3c 1c1d 1f3c 98de c13c
-0.061486766 -0.047915794 0.043710906 0.020956941 -0.03841595 0.023562385 -0.026324017 0.02847512
0.017127331 -0.06608821 0.039003313 -0.022979228 0.0053902967 -0.05362038 0.038192477 0.09580217
-0.03279058 -0.036120392 0.0075017475 0.04526267 -0.041805904 0.018131651 -0.0018695944 -0.036057502
-0.025471829 -0.023879884 -0.056912344 -0.055817686 0.025527451 0.045314662 -0.03229908 -0.029956194
0.03839141 -0.038033694 -0.040118694 -0.014077276 0.008128142 0.01757552 -0.016952189 -0.050231896
0.031146133 -0.03869986 -0.016395167 -0.021842605 -0.054535702 0.006899316 -0.06345696 -0.03209336
-0.005269137 0.007015542 -0.026457995 0.07993404 -0.07119049 -0.013789165 0.070693396 -0.028733207
0.011583202 -0.054151066 0.055592254 0.012419221 -0.011117658 0.030773053 0.004410103 -0.028077053
-0.04865892 0.008303536 -0.005474826 -0.05065085 -0.060621105 -0.034131598 -0.04697847 -0.021110766
-0.0018672219 0.0016710805 -0.004217255 -0.017866857 -0.00084492186 0.014566834 0.013012607 0.01589789
0.054444652 0.0008977726 0.049285427 0.048441216 0.012333912 -0.03301753 0.021567866 0.027436364
0.0630743 -0.019626752 0.029434858 0.0039493814 0.01605244 0.034246493 0.01609855 -0.02158222
-0.03046645 -0.03939504 0.03846562 -0.0658571 -0.014284144 0.009064765 -0.026395569 -0.011805936
-0.053561978 -0.060337763 -0.039725374 -0.023316259 -0.055151526 -0.020727873 -0.019918904 0.052347317
-0.037057813 0.048152164 0.07541642 0.039811566 -0.009106934 -0.004010489 -0.038381983 0.046082266
-0.014157463 -0.038928363 0.045309715 -0.047670603 0.018761756 0.019862238 0.009180533 -0.03884504
-0.038660202 -0.014997488 0.0020801984 -0.07140242 0.0590059 0.018244857 0.020474268 -0.046685692
0.051886022 0.022484805 0.010227785 0.048397582 -0.041864745 0.017368754 -0.042879663 -0.048843436
0.019940512 -0.021599488 -0.037747547 -0.06622453 -0.015256211 0.02645857 -0.013296237 0.02338647
-0.014280155 -0.04505009 0.027606329 0.010695858 -0.017558023 0.06816242 -0.015555759 0.051583745
0.032585215 -0.047312018 -0.013924554 -0.0072808196 0.04229559 -0.0010991178 -0.025173929 -0.057906963
-0.043420758 0.0465418 0.016157899 -0.0026415717 0.003556229 -0.022080362 0.054426886 -0.03301733
0.06757898 -0.00680721 -0.023431763 0.029002443 0.028589237 0.05726733 -0.0043502627 -0.04678616
0.013947513 -0.021939285 0.06664018 0.032221247 0.053478174 -0.07097626 0.014302132 0.04195016
-0.049907375 -0.07193033 0.013707373 0.05206511 -0.044227395 -0.0181638 -0.02554196 0.06289644
0.011795493 -0.06658028 0.022971401 0.10735767 0.0544339 0.049949925 -0.05579721 0.03430353
0.029905275 0.020599773 0.0009637759 0.009654513 0.02351346 -0.05161312 0.04083776 0.0657562
-0.011184151 0.035061263 0.013448939 0.016457433 0.020545913 -0.027353501 0.022750592 -0.045783132
-0.06452215 0.055050027 0.113965236 0.022942293 -0.05541558 0.07790693 0.019441852 -0.062165994
0.03434384 -0.049616024 0.010802517 -0.015246397 0.0018735196 0.030466042 -0.025894288 -0.046232775
0.038275372 0.05442508 0.011932896 -0.004664817 -0.03358153 -0.018022403 0.005099845 -0.040801976
-0.027124707 -0.018352037 0.051561117 -0.026665354 0.052120283 0.017205136 0.00971153 0.023665711

model_layers.1.bias f4 [3]
00000000: 1d72 a7bc 5b90 b63c 399d 9abb
-0.020440156 0.02228563 -0.0047184494
